Models/gcn_model_v3.pth (torch, 392094 bytes, 23 tensors)

embed.weight f4 [285, 128]
7.760714e-06 -0.0036003955 -0.0020050227 0.000206581 0.0034370823 -0.00083657785 0.0026192837 -0.0034070758
-0.0008497129 -0.0026864551 -0.00096617517 0.002493139 -0.0012435539 -0.0022340084 -0.005366599 0.00011478968
0.002484366 0.0056825727 -0.00070799433 0.004536563 -0.0012671057 0.0013476686 -0.00551165 0.00021879989
-0.0031730372 -0.00029263817 0.004408399 5.2586038e-05 -0.00012874443 -0.00094031304 0.0071834065 0.005113058
-0.0018443653 0.003263406 0.0028899347 0.000828362 -8.6784516e-05 -0.00068325346 -0.0060932157 0.004127785
-0.0072849942 6.502161e-05 -0.0022721982 -0.005488715 0.00051783846 0.0009953777 -0.0013511864 -0.0079288045
0.000344503 0.0026197236 -0.0012508262 0.001665722 -5.191385e-05 -0.003487099 -0.0037967875 -0.0055913636
0.0011205404 0.0015181663 -0.00014011402 0.0014453933 0.00210642 -0.0058816746 0.0011894355 0.008454566
-0.0067112194 0.00035942488 0.007522475 0.00025654904 -0.0026316182 -0.0042236913 0.008199856 0.00889419
0.0013764679 8.368615e-07 -0.0038296222 0.00044822338 0.008325713 -0.007761127 -0.002882637 0.0009328619
-0.0004548563 0.00096323964 0.002314504 -0.0015605895 0.0029367371 0.00027252536 -0.00014624496 -0.00046801203
0.009000138 8.9025416e-05 0.003415805 0.0018433043 0.0069758208 0.0027689647 0.0037563518 -0.00029914832
-0.0045399033 0.012099288 0.00586912 -0.0032753032 -0.0011087019 0.0001340547 0.0022914414 1.1382416e-05
-0.0008735968 0.00048529982 -0.00012497278 3.521765e-05 0.0020784899 -0.0018557477 -0.0016702329 0.006000192
-0.0053476417 0.008974036 -0.002671181 0.0018270018 0.004233004 0.0021458326 0.00025066154 -0.0026537844
0.0026404734 -0.003931403 -0.005879942 -0.00063477416 0.0039605526 -0.0012390281 0.0031135685 -0.0072824615
0.00017322271 -5.1730934e-13 -0.00013491602 -0.00050489866 0.0003578728 3.978991e-12 8.900211e-06 -9.714474e-08
-6.5899985e-06 -7.899033e-06 1.0924809e-13 2.219826e-05 0.00045862817 9.4170726e-05 5.281289e-12 2.1966406e-11
6.8812605e-09 0.0003901705 -1.9800523e-06 2.852694e-10 -0.00050942914 9.389511e-06 -4.3565513e-05 1.3896813e-08
-2.4910922e-13 -1.0163768e-06 -1.4219456e-09 0.00087932235 0.0004913206 -1.0195048e-06 0.000536855 4.9888975e-05
-6.264522e-05 0.00037288817 2.685002e-05 -1.1465188e-07 5.899689e-05 3.799915e-05 -0.00015682772 1.2909162e-05
1.0371594e-05 3.7902265e-07 -4.377446e-08 -1.8403442e-05 -2.0865632e-06 -3.7559694e-14 5.406491e-09 -2.158044e-08
0.00022830212 2.3715228e-14 -5.740872e-14 1.1721414e-05 0.00041217828 -6.766439e-05 -7.844315e-05 -1.4704634e-05
-8.067216e-07 5.5567915e-07 6.673525e-08 -0.0002447341 -8.503491e-08 -6.5005197e-06 2.4157933e-05 3.4878565e-06
-0.00022519733 8.168362e-05 0.00033278044 3.899364e-13 -9.027198e-05 1.2885221e-13 0.00047849317 0.0011592485
-1.9416691e-05 -4.2371226e-05 -1.3651359e-10 -9.04861e-06 2.0988368e-06 -0.0003989754 1.5543978e-13 0.0003242344
-2.7861895e-14 1.5603987e-09 -5.682054e-09 0.00041963588 0.00094773143 -2.588367e-07 -0.00010211211 -0.00017735292
0.00081913034 1.363005e-05 0.00043611485 0.0012807198 0.00041843092 0.0012827637 5.422217e-05 0.00029327275
4.9065743e-06 3.324247e-05 -3.4121584e-07 -8.3609985e-14 -7.1743166e-06 2.5401228e-08 -6.8877135e-12 -1.187669e-06
-0.00016209876 4.7067918e-08 -1.701551e-06 7.942848e-14 0.00012769943 -0.00016956778 -7.62825e-05 1.900669e-14
-0.0015992087 1.6475242e-06 0.00012723605 1.016793e-06 -2.1855137e-06 0.00034575124 -1.9736286e-05 3.6615676e-13
1.0054115e-05 -6.518885e-05 -3.3963857e-05 -0.00018777652 8.026465e-07 1.1327127e-05 1.8389221e-13 -6.842858e-05
00000000: 0334 0237 9df4 6bbb b366 03bb aa9d 5839
00000010: ac40 613b ca4d 5bba 4aa8 2b3b 3f49 5fbb
00000020: 44bf 5eba 3d0f 30bb eb46 7dba ee63 233b
00000030: bffe a2ba 7168 12bb 4cda afbb 3dbb f038
00000040: bfd0 223b e034 ba3b b298 39ba 73a7 943b
00000050: 0315 a6ba 41a4 b03a 129b b4bb a66d 6539
00000060: bbf2 4fbb 3b6d 99b9 5574 903b d48f 5c38
00000070: 92ff 06b9 577f 76ba c862 eb3b 708b a73b
00000080: a1be f1ba dede 553b 0f65 3d3b 6f26 593a
00000090: 1500 b6b8 5d1c 33ba 99a9 c7bb 5f42 873b
000000a0: f6b6 eebb 365c 8838 29e9 14bb aeda b3bb
000000b0: 8dbf 073a 5577 823a 4b1a b1ba d1e7 01bc
000000c0: 699e b439 abaf 2b3b c3f2 a3ba 5b54 da3a
000000d0: 12be 59b8 d087 64bb 86d3 78bb c237 b7bb
000000e0: 19df 923a 35fd c63a 92eb 12b9 5a73 bd3a
000000f0: dd0b 0a3b 10bb c0bb d5e6 9b3a 0585 0a3c
00000100: cae9 dbbb 3171 bc39 187f f63b 6e81 8639
00000110: 3a77 2cbb e466 8abb b058 063c f0b8 113c
00000120: 996a b43a afa4 6035 66fa 7abb 86ff ea39
00000130: 9268 083c 0d51 febb a0ea 3cbb 4d8b 743a
00000140: c779 eeb9 eb81 7c3a efae 173b b28c ccba
00000150: 4676 403b bce1 8e39 5559 19b9 835f f5b9
00000160: 5175 133c 28b3 ba38 b3db 5f3b 079b f13a
00000170: 6d95 e43b 8577 353b 202d 763b 02d7 9cb9
00000180: 78c3 94bb 183c 463c bf51 c03b 78a6 56bb
00000190: dd51 91ba 0991 0c39 022c 163b 1bf7 3e37
000001a0: 1702 65ba d76f fe39 200b 03b9 aab6 1338
000001b0: 4637 083b 8f3c f3ba b7eb daba 429d c43b
000001c0: 453b afbb d607 133c fb0e 2fbb 0278 ef3a
000001d0: 03b5 8a3b 19a1 0c3b 396b 8339 1deb 2dbb
000001e0: cb0b 2d3b 00d3 80bb 87ac c0bb f966 26ba
000001f0: 86c7 813b e266 a2ba 030d 4c3b b7a1 eebb
00000200: 1ea3 3539 119c 11ab 3e78 0db9 2d5b 04ba
00000210: e0a0 bb39 91ff 8b2c 1d52 1537 e39d d0b3
00000220: a81f ddb6 1786 04b7 3c01 f629 6636 ba37
00000230: 0874 f039 867d c538 9fd1 b92c f337 c12d
00000240: 3570 ec31 cc8f cc39 0ae1 04b6 19d4 9c2f
00000250: 368b 05ba a587 1d37 1dba 36b8 d4be 6e32
00000260: 6c3c 8caa 716a 88b5 436e c3b0 5382 663a
00000270: f8cb 003a ebd5 88b5 bbbb 0c3a e13f 5138
00000280: 6560 83b8 3480 c339 fb3b e137 8a36 f6b3
00000290: 6e73 7738 4761 1f38 1f72 24b9 6e94 5837
000002a0: a801 2e37 7a7c cb34 8702 3cb3 1761 9ab7
000002b0: e206 0cb6 6127 29a9 ffc3 b931 e45f b9b2
000002c0: 6264 6f39 989b d528 e045 81a9 17a7 4437
000002d0: a219 d839 0be7 8db8 d881 a4b8 ecb3 76b7
000002e0: 7c8d 58b5 fb29 1535 1750 8f33 a84f 80b9
000002f0: 709c b6b3 0a1f dab6 c4a6 ca37 eb10 6a36
00000300: f322 6cb9 8f4d ab38 0979 ae39 c283 db2a
00000310: 6650 bdb8 1f13 112a 44de fa39 edf1 973a
00000320: 07e1 a2b7 c2b7 31b8 2919 16af 7ccf 17b7
00000330: bed9 0c36 922d d1b9 7702 2f2a 01fe a939
00000340: 28f5 faa8 a675 d630 e03b c3b1 9302 dc39
00000350: 2e71 783a 3ff6 8ab4 0625 d6b8 d0f7 39b9
00000360: e8ba 563a 9eac 6437 58a6 e439 d3dd a73a
00000370: d960 db39 6822 a83a 9d6c 6338 67c2 9939
00000380: 27a3 a436 d56d 0b38 5930 b7b4 e045 bca9
00000390: e9ba f0b6 e431 da32 0257 f2ac ff67 9fb5
000003a0: 0ef9 29b9 b927 4a33 d960 e4b5 67db b229
000003b0: 0ee7 0539 01ce 31b9 dbf9 9fb8 7132 ab28
000003c0: 8a9c d1ba 8020 dd35 ab6a 0539 be78 8835
000003d0: d7aa 12b6 f245 b539 5a8f a5b7 c020 ce2a
000003e0: 18ae 2837 ffb5 88b8 6a74 0eb8 e0e5 44b9
000003f0: 7375 5735 a409 3e37 520b 4f2a 5081 8fb8

conv1.weight f4 [128, 128]
-0.105987184 -0.08808043 0.120998375 -0.115559794 0.01552758 -0.032805134 -0.085120134 -0.13238591
-0.005611653 0.02955883 -0.0017453557 -0.026956545 -0.04779468 0.07402634 0.06647174 -0.0998536
-0.08347619 0.14514501 0.07766746 -0.00991758 -0.009677517 -0.07370203 -0.11752413 0.06741211
-0.121266134 -0.06208316 0.010807254 0.045901533 0.06873838 -0.047911473 -0.1453795 0.064083785
-0.01973896 0.12302133 0.18233699 0.03647065 -0.060707744 0.0325771 0.12376135 -0.17906268
0.057863284 -0.05112333 -0.06515591 0.11613499 0.03277356 -0.095498174 -0.080542795 -0.12088791
0.07749714 0.021584606 0.033350293 -0.12263816 -0.027606146 -0.047696542 -0.08319934 0.02270017
0.049131136 -0.050856747 -0.009769368 -0.081777245 0.0937208 -0.06856905 0.0043466636 0.10952387
0.08541006 -0.15892406 0.043567047 0.18045558 0.03192436 0.07137639 0.12200103 0.09218717
-0.07903083 -0.14179261 0.03564707 0.10140035 -0.09563738 -0.08271507 0.1681002 0.057507396
0.03331768 0.014336601 -0.1359452 0.12901089 0.12162444 0.10958205 -0.0026113475 0.057909273
0.16897987 0.042963266 0.0020494177 -0.031479932 -0.11180027 -0.0060093016 0.092982166 -0.19434412
0.15747046 -0.06947569 -0.0008443181 0.10654826 -0.068815626 -0.021680364 0.059940718 -0.006324891
0.061469592 -0.01346835 0.036710665 0.0951352 -0.12853079 -0.084784485 -0.17621982 0.104654856
-0.012138954 -0.019079369 -0.10999869 -0.028208245 -0.18969668 0.11604059 0.07295361 -0.13008043
-0.11582317 -0.091303304 0.03172746 0.003217118 -0.070071034 -0.18085386 0.0068159914 -0.047715724
0.023836799 -0.041607343 -0.043719023 0.030730538 -0.04135756 0.08870623 0.09180744 -0.102317214
0.06208396 0.08493069 -0.12695542 0.13038075 -0.008059385 -0.14140481 0.026772471 0.07160587
-0.12373508 0.021347143 -0.08284589 0.035355337 -0.024931684 0.050090887 0.036612116 0.15331003
0.03329232 -0.06356577 0.16268048 -0.07528591 0.1333828 -0.22716306 0.07619526 -0.051432565
0.013745729 -0.0020365035 -0.14244653 -0.029348006 -0.033631265 -0.0014356112 -0.010472409 0.172108
-0.07821469 0.04717184 0.14018539 -0.2239072 -0.05325796 0.115545206 -0.08730087 0.11074928
-0.010992069 0.05953199 0.06957723 -0.0847956 -0.08760656 -0.10009557 0.060250908 -0.018593298
-0.026948025 -0.1829238 -0.07685934 0.0015786962 0.024160633 -0.16573232 -0.056217592 0.08042785
0.1409378 0.087711036 -0.06934873 0.12848298 -0.047254205 0.16472861 -0.033915855 0.07682081
0.2043091 0.001395956 -0.053551205 0.11760997 -0.18085119 0.0154989455 -0.13281067 0.050727025
0.043857325 0.05036685 -0.023772314 -0.14489509 -0.06347936 0.070584856 0.046678256 -0.10283121
0.06931589 0.21864566 0.10668345 -0.07512628 -0.024638671 0.058352683 -0.052185573 -0.041543916
0.06165724 -0.012133451 0.07689225 -0.080504246 -0.064532995 -0.12224494 -0.0022250947 0.12275797
-0.084877044 0.052595656 0.14167492 -0.025505818 0.085974336 -0.08904218 0.07299156 -0.02382954
-0.045410905 0.07749586 0.058499526 -0.008746786 0.081380665 -0.035118427 -0.06249246 0.0140243005
0.019881174 0.140803 0.027106248 -0.043019112 0.12738378 0.034020357 -0.029383544 0.103023306
00000000: cf0f d9bd 8363 b4bd ffcd f73d 9daa ecbd
00000010: 6467 7e3c ad5e 06bd 7753 aebd 2c90 07be
00000020: f5e1 b7bb 5c25 f23c 6bc4 e4ba f9d3 dcbc
00000030: 5bc4 43bd 1f9b 973d 5622 883d 0b80 ccbd
00000040: 91f5 aabd e5a0 143e 1e10 9f3d 587d 22bc
00000050: 738e 1ebc 17f1 96bd 7eb0 f0bd 5c0f 8a3d
00000060: 615a f8bd e94a 7ebd e910 313c 3f03 3c3d
00000070: b5c6 8c3d d23e 44bd 5dde 14be 5c3e 833d
00000080: 99b3 a1bc 9bf2 fb3d 8cb6 3a3e 4062 153d
00000090: afa8 78bd 916f 053d 9776 fd3d 355c 37be
000000a0: 0d02 6d3d b266 51bd 7670 85bd 2ed8 ed3d
000000b0: 923d 063d 8c94 c3bd 9ff3 a4bd 1594 f7bd
000000c0: d2b6 9e3d 33d2 b03c 519a 083d b729 fbbd
000000d0: 4926 e2bc 735d 43bd 6a64 aabd b5f5 b93c
000000e0: bb3d 493d 2a4f 50bd b30f 20bc d47a a7bd
000000f0: b1f0 bf3d ee6d 8cbd 756e 8e3b 0d4e e03d
00000100: 78eb ae3d fdbc 22be 5c73 323d 59c9 383e
00000110: 1ec3 023d c92d 923d addb f93d a1cc bc3d
00000120: eada a1bd 1532 11be a902 123d fdaa cf3d
00000130: 88dd c3bd 8566 a9bd 7522 2c3e e08c 6b3d
00000140: 1f78 083d 10e4 6a3c 3835 0bbe 6e1b 043e
00000150: 3c16 f93d 8e6c e03d 2423 2bbb 4632 6d3d
00000160: 0f09 2d3e 40fa 2f3d 864f 063b 1af1 00bd
00000170: 8af7 e4bd ade9 c4bb 6f6d be3d 2502 47be
00000180: f03f 213e 4549 8ebd 3b55 5dba f935 da3d
00000190: 35ef 8cbd 059b b1bc 6684 753d 0841 cfbb
000001a0: 8ac7 7b3d 5baa 5cbc ec5d 163d 3ed6 c23d
000001b0: 939d 03be 7da3 adbd f872 34be 4955 d63d
000001c0: 77e2 46bc 564c 9cbc fe46 e1bd fa14 e7bc
000001d0: d93f 42be b0a6 ed3d b468 953d ce33 05be
000001e0: b334 edbd 3afd babd a7f4 013d 49d6 523b
000001f0: 6781 8fbd c131 39be ae58 df3b 9071 43bd
00000200: 6445 c33c 766c 2abd b812 33bd 9cbe fb3c
00000210: 8b66 29bd 9dab b53d 8a05 bc3d b08b d1bd
00000220: c04b 7e3d 24f0 ad3d 9a00 02be 8882 053e
00000230: 830b 04bc 6ccc 10be f151 db3c 19a6 923d
00000240: d168 fdbd 34e0 ae3c 1bab a9bd c2d0 103d
00000250: 883d ccbc 1a2c 4d3d 96f6 153d 4efd 1c3e
00000260: 875d 083d c52e 82bd b695 263e 802f 9abd
00000270: 8095 083e 6f9d 68be 430c 9c3d f4aa 52bd
00000280: c435 613c dc76 05bb 81dd 11be 3b6b f0bc
00000290: f0c0 09bd 1e2b bcba 7894 2bbc 143d 303e
000002a0: 062f a0bd 4237 413d c28c 0f3e ee47 65be
000002b0: 0525 5abd f7a2 ec3d ccca b2bd 85d0 e23d
000002c0: 1418 34bc d1d7 733d 827e 8e3d 51a9 adbd
000002d0: 116b b3bd e8fe ccbd a8c9 763d f950 98bc
000002e0: 1bc2 dcbc 6050 3bbe 6e68 9dbd 41ec ce3a
000002f0: 85ec c53c bcb5 29be 6b44 66bd 5bb7 a43d
00000300: 0052 103e d8a1 b33d b506 8ebd 0b91 033e
00000310: a08d 41bd 9eae 283e 5aeb 0abd 3b54 9d3d
00000320: 6836 513e 83f8 b63a 8258 5bbd 7fdd f03d
00000330: 0e31 39be 4aef 7d3c 85ff 07be 24c7 4f3d
00000340: bda3 333d 784d 4e3d 28be c2bc 615f 14be
00000350: 7701 82bd cb8e 903d b331 3f3d 2b99 d2bd
00000360: 7df5 8d3d a6e4 5f3e da7c da3d cfdb 99bd
00000370: 0ad7 c9bc 3903 6f3d 8ac0 55bd f429 2abd
00000380: 4d8c 7c3d 62cb 46bc af79 9d3d 69df a4bd
00000390: e029 84bd 8e5b fabd e5d2 11bb 8868 fb3d
000003a0: 04d4 adbd 8b6e 573d 3b13 113e 94f1 d0bc
000003b0: 5013 b03d bf5b b6bd 997c 953d 2b36 c3bc
000003c0: c900 3abd 26b6 9e3d 339d 6f3d ae4e 0fbc
000003d0: e8aa a63d 57d8 0fbd 18f8 7fbd 2ec6 653c
000003e0: d8dd a23c a92e 103e ec0d de3c cf34 30bd
000003f0: e570 023e ee58 0b3d c2b5 f0bc e2fd d23d

conv1.bias f4 [128]
1.775188e-05 4.103172e-05 -4.8324666e-05 5.63945e-05 5.6109952e-06 9.234421e-05 5.6199468e-05 2.0084683e-05
-1.4632267e-05 9.691867e-05 8.216293e-06 2.2653747e-05 -1.714848e-05 -6.248894e-05 -3.9112652e-05 -6.1471546e-05
-3.6926052e-05 6.220449e-05 -2.1405329e-05 9.7557895e-06 -1.827661e-05 -2.5950685e-06 -5.4175816e-06 4.4479795e-05
-1.09357425e-05 3.2126383e-05 2.8074568e-05 4.168767e-06 9.084418e-06 1.6024807e-05 1.5788519e-05 1.2763715e-05
-9.5763506e-05 5.635938e-05 -5.6740206e-05 2.822197e-05 -3.119281e-05 9.89474e-06 3.006431e-06 -2.634653e-05
4.093295e-05 1.8708703e-05 2.3037515e-05 -3.9769122e-05 -2.5405272e-05 2.866274e-06 2.4170862e-05 1.0163527e-06
-8.672313e-06 -1.1114684e-05 2.0209201e-05 -3.5669134e-05 -1.4169768e-05 2.456091e-05 1.9426912e-05 3.4106743e-05
-2.9337381e-05 -3.8798607e-05 -9.1231584e-07 5.916393e-05 1.16007595e-05 -1.1143581e-05 2.0428599e-05 6.681075e-05
2.731914e-05 2.8995297e-05 2.4412298e-05 -5.835811e-06 3.3411882e-06 4.290947e-05 4.525664e-05 8.380092e-06
-4.3345262e-05 -1.726033e-05 -5.633887e-05 -2.119506e-05 6.037099e-07 -8.6974605e-06 -0.00010614218 -1.4800551e-05
-2.1166607e-05 -1.2691823e-06 -1.2176915e-05 5.2061576e-05 1.1933313e-05 2.7487395e-05 -1.6034355e-05 -1.389141e-05
3.381981e-05 2.82579e-05 -4.0746245e-06 -9.9242e-06 1.2023485e-06 2.87501e-05 1.93709e-06 2.2372813e-06
-3.6353763e-06 1.6470054e-05 -2.9125522e-05 -1.5405378e-05 3.050933e-05 -7.0024826e-06 2.1446147e-05 -2.1297094e-05
3.7128168e-05 -2.8632649e-05 -2.3245293e-06 -3.800888e-05 -9.054899e-06 -1.0234413e-05 8.861145e-05 3.748384e-05
-1.8202632e-05 -3.2578515e-05 8.255719e-06 8.128697e-06 -5.1121868e-05 -0.00011233282 4.4710458e-05 5.6841327e-05
1.2256813e-05 -1.41993405e-05 2.2503125e-05 -5.8063917e-05 1.7858289e-05 2.0956928e-05 2.788837e-06 -9.3885814e-07
00000000: dfe9 9437 7919 2c38 37b0 4ab8 2289 6c38
00000010: 1546 bc36 eca8 c138 b8b7 6b38 877b a837
00000020: 1c7d 75b7 d140 cb38 b6d8 0937 8d08 be37
00000030: 15da 8fb7 7f0c 83b8 e40c 24b8 49ea 80b8
00000040: 0ce1 1ab8 c873 8238 988f b3b7 ccac 2337
00000050: b950 99b7 f026 2eb6 acc8 b5b6 d18f 3a38
00000060: a878 37b7 71bf 0638 ad81 eb37 70e1 8b36
00000070: 4769 1837 036d 8637 9671 8437 bd23 5637
00000080: a4d4 c8b8 6c63 6c38 55fc 6db8 38be ec37
00000090: 06d5 02b8 9601 2637 17c2 4936 be02 ddb7
000000a0: 6caf 2b38 a2f0 9c37 b040 c137 c5cd 26b8
000000b0: 681d d5b7 365a 4036 88c2 ca37 9d69 8835
000000c0: 4d7f 11b7 3479 3ab7 ee86 a937 719b 15b8
000000d0: b1ba 6db7 2708 ce37 faf6 a237 d60d 0f38
000000e0: 8c19 f6b7 b0bb 22b8 dee5 74b5 c926 7838
000000f0: e2a0 4237 51f5 3ab7 155e ab37 c01c 8c38
00000100: 682b e537 ed3a f337 03c9 cc37 3cd1 c3b6
00000110: 2d39 6036 b1f9 3338 f2d1 3d38 3998 0c37
00000120: 9fcd 35b8 47ca 90b7 674d 6cb8 0bcc b1b7
00000130: a10e 2235 4feb 11b7 a698 deb8 e24f 78b7
00000140: f18e b1b7 c658 aab5 744b 4cb7 b15c 5a38
00000150: 3035 4837 bb94 e637 8481 86b7 270f 69b7
00000160: bfd9 0d38 610b ed37 c2b8 88b6 1d80 26b7
00000170: 6160 a135 5f2c f137 f4fe 0136 3324 1636
00000180: 4af7 73b6 2c29 8a37 9552 f4b7 cc3a 81b7
00000190: 4aee ff37 def6 eab6 40e7 b337 29a7 b2b7
000001a0: 11ba 1b38 2530 f0b7 1cff 1bb6 b96b 1fb8
000001b0: 7fea 17b7 78b4 2bb7 e9d4 b938 f737 1d38
000001c0: dbb1 98b7 eaa4 08b8 0b82 0a37 7d60 0837
000001d0: b06b 56b8 3994 ebb8 7d87 3b38 e968 6e38
000001e0: 9ca2 4d37 b439 6eb7 18c5 bc37 a889 73b8
000001f0: 62ce 9537 a9cc af37 db27 3b36 d705 7cb5

conv2.weight f4 [128, 128]
0.08039325 -0.039733812 -0.017970122 -0.10335106 0.017173087 -0.031066464 0.032934524 -0.04196118
-0.019199261 -0.074538946 0.023390535 0.00092630775 0.084735036 0.030098328 0.07088688 -0.004667511
0.028917473 -0.09657171 -0.032456696 0.070197314 0.0022081225 -0.122183844 -0.01007637 0.09067615
-0.011080068 0.09051986 0.02155082 0.027948713 0.045506023 0.045965925 0.037395068 0.010108097
0.019257218 -0.013348102 -0.06809116 0.099961355 0.019198084 -0.016649645 0.030824402 0.027778896
-0.02846057 -0.045842435 0.049652703 -0.07307076 0.11298298 -0.11403063 -0.017969053 0.013506523
0.01267516 0.008511695 0.08884652 0.027461179 0.039729707 -0.010125541 -0.087341346 0.037032146
0.042538363 0.09648374 0.055605337 0.120255515 -0.026132977 0.09239514 0.030979093 -0.035542745
-0.14333424 -0.037568733 0.012672924 0.099334866 -0.02378678 0.052914687 0.045739844 -0.026232552
-0.073402494 -0.02255347 0.08829476 -0.071672395 -0.045929633 -0.101368755 0.02560001 -0.024271103
-0.012184954 -0.032316837 -0.025649207 0.053814147 -0.07189247 0.05865281 0.035716914 -0.10187051
0.051576838 -0.05783777 0.043309577 -0.026495015 0.009455324 -0.12783934 -0.0635139 0.015305081
-0.09096449 -0.093194924 0.0146000385 -0.07457175 -0.08533725 -0.07108666 0.098497264 -0.046268605
0.0018138563 0.06766482 -0.037294995 -0.06533294 0.06846318 -0.1148315 -0.00013866033 -0.05761782
-0.0027386127 0.12519425 0.056211933 0.16233358 0.015309489 -0.0077340286 -0.05312079 -0.0012775796
-0.13890411 -0.037096884 0.11864912 0.100954935 -0.051974274 -0.04206583 -0.051512454 0.0567681
-0.053363215 0.028505864 -0.0064304485 0.10130032 -0.025835361 -0.059197683 0.061915588 -0.0037994867
0.0006282188 0.032497656 -0.09674011 0.0045869933 -0.0026831082 -0.07000658 0.02097448 -0.12824662
0.1122406 -0.08921223 -0.047775228 0.04459329 -0.13121547 0.030040724 0.11670145 -0.016058674
-0.04461963 -0.0128232455 0.022059392 -0.054275256 0.10829595 0.025633091 -0.09153089 0.07799321
-0.075760566 0.013860352 -0.16203478 -0.029579319 -0.045849998 -0.0025810509 0.009444474 0.083721556
-0.0024453674 -0.056190457 -0.015142238 -0.1309016 0.025667354 0.0073554195 0.057419155 -0.013675458
0.065873325 -0.051072776 0.025883479 0.053441554 -0.08087825 0.058872968 0.064218916 0.06576154
-0.04898005 -0.105140485 -0.036578055 -0.04687577 0.010995916 0.04787291 -0.096754685 -0.055883635
0.020377338 -0.120273516 0.038175903 -0.027218169 -0.057557918 -0.10306791 0.123187155 -0.0027737895
0.009839111 -0.014207431 -0.043945312 -0.040626235 -0.0025974086 0.008629674 0.06690768 -0.03862729
0.0987771 -0.012152326 0.007610889 -0.025670506 -0.029912166 -0.025505522 0.09342919 -0.04006154
0.1316873 -0.004836675 0.05295128 0.08665481 0.021673849 -0.015844865 0.0095440205 0.07457283
-0.05719467 0.0066467677 -0.01434906 0.060005948 -0.0019753336 -0.10792775 0.07889808 0.027705964
0.12661186 -0.031813297 0.06335247 0.13377841 0.056349292 0.045147024 0.024243372 0.026556954
-0.0067361905 0.12226053 -0.011617231 0.014316893 0.0587907 0.05257678 0.005334537 -0.05880793
0.042203143 -0.1049171 0.13438162 -0.13488944 -0.035555195 0.10462189 -0.032803625 -0.067686915
00000000: 37a5 a43d ecbf 22bd 1436 93bc b8a9 d3bd
00000010: 93ae 8c3c 197f febc 5ae6 063d 7cdf 2bbd
00000020: c547 9dbc e0a7 98bd 829d bf3c 76d3 723a
00000030: 9089 ad3d c590 f63c 242d 913d ecf1 98bb
00000040: 56e4 ec3c 64c7 c5bd 50f1 04bd 9cc3 8f3d
00000050: 26b6 103b 863b fabd 5c17 25bc 6bb4 b93d
00000060: 2c89 35bc 7a62 b93d 588b b03c b3f4 e43c
00000070: 8664 3a3d c446 3c3d 922b 193d 6f9c 253c
00000080: 50c1 9d3c ffb1 5abc 6173 8bbd 8ab8 cc3d
00000090: 4d45 9d3c d664 88bc 7583 fc3c 9190 e33c
000000a0: 2426 e9bc 47c5 3bbd a260 4b3d 1fa6 95bd
000000b0: 9f63 e73d e488 e9bd d633 93bc 774a 5d3c
000000c0: 79ab 4f3c a374 0b3c 2af5 b53d 44f6 e03c
000000d0: 9ebb 223d 99e5 25bc 05e0 b2bd 05af 173d
000000e0: b53c 2e3d 4499 c53d 6cc2 633d 8648 f63d
000000f0: d314 d6bc aa39 bd3d dec7 fd3c 4595 11bd
00000100: 36c6 12be ace1 19bd 19a2 4f3c 1470 cb3d
00000110: 7edc c2bc 12bd 583d b459 3b3d a6e5 d6bc
00000120: 0c54 96bd 0ec2 b8bc e2d3 b43d fac8 92bd
00000130: b620 3cbd 6c9a cfbd 1db7 d13c 31d4 c6bc
00000140: 67a3 47bc a95e 04bd 491e d2bc 396c 5c3d
00000150: 5c3c 93bd ee3d 703d e64b 123d 7ca1 d0bd
00000160: 3c42 533d 4ce7 6cbd 6265 313d 130c d9bc
00000170: 81ea 1a3c 51e8 02be 9313 82bd 2ac2 7a3c
00000180: 974b babd fbdc bebd 0035 6f3c 13b9 98bd
00000190: 4cc5 aebd e295 91bd efb8 c93d 2684 3dbd
000001a0: ebbe ed3a da93 8a3d a3c2 18bd 47cd 85bd
000001b0: 6c36 8c3d c72c ebbd 5965 11b9 aa00 6cbd
000001c0: 4c7a 33bb ec32 003e 7c3e 663d c63a 263e
000001d0: a7d4 7a3c bc6d fdbb 2f95 59bd 7574 a7ba
000001e0: e13c 0ebe e7f2 17bd 4ffe f23d 76c1 ce3d
000001f0: fae2 54bd 384d 2cbd b9fe 52bd ab85 683d
00000200: 6393 5abd 2185 e93c 83b6 d2bb 8b76 cf3d
00000210: aea4 d3bc 4579 72bd 339b 7d3d cf00 79bb
00000220: 0daf 243a 431c 053d ae1f c6bd 7d4e 963b
00000230: 16d7 2fbb 9c5f 8fbd acd2 ab3c 1553 03be
00000240: 66de e53d e7b4 b6bd f5af 43bd 74a7 363d
00000250: 595d 06be f717 f63c 2b01 ef3d 7b8d 83bc
00000260: 13c3 36bd 9718 52bc e6b5 b43c bb4f 5ebd
00000270: 44ca dd3d 7dfc d13c 8c74 bbbd e7ba 9f3d
00000280: 5b28 9bbd 8816 633c 72ec 25be 5450 f2bc
00000290: 35cd 3bbd d926 29bb ffbc 1a3c 3576 ab3d
000002a0: 7542 20bb f727 66bd 2617 78bc 120b 06be
000002b0: 5844 d23c bb05 f13b 5930 6b3d 070f 60bc
000002c0: 98e8 863d b031 51bd 9709 d43c 88e5 5a3d
000002d0: 7fa3 a5bd c824 713d 3585 833d fcad 863d
000002e0: 4e9f 48bd e553 d7bd dfd2 15bd cf00 40bd
000002f0: 3728 343c 6216 443d 5227 c6bd 3de6 64bd
00000300: 60ee a63c f651 f6bd 565e 1c3d a3f8 debc
00000310: dac1 6bbd 4515 d3bd 8c49 fc3d 77c8 35bb
00000320: 3934 213c 49c6 68bc 0000 34bd b267 26bd
00000330: 4939 2abb 7a63 0d3c e506 893d a637 1ebd
00000340: a64b ca3d 8d1a 47bc c464 f93b f44a d2bc
00000350: 5c0a f5bc f5f0 d0bc ce57 bf3d 9217 24bd
00000360: 09d9 063e f87c 9ebb 71e3 583d 1478 b13d
00000370: 5b8d b13c 17cd 81bc 865e 1c3c a4b9 983d
00000380: f544 6abd 21cd d93b 5218 6bbc ccc8 753d
00000390: 9974 01bb 3909 ddbd 5195 a13d 9ef7 e23c
000003a0: 8aa6 013e a94e 02bd f1be 813d 35fd 083e
000003b0: 84ce 663d 16ec 383d 099a c63c f88d d93c
000003c0: 43bb dcbb bb63 fa3d 3356 3ebc 6791 6a3c
000003d0: 84ce 703d c05a 573d 57cd ae3b 96e0 70bd
000003e0: 34dd 2c3d c7de d6bd 569b 093e 7520 0abe
000003f0: 53a2 11bd 0044 d63d 185d 06bd 709f 8abd

conv2.bias f4 [128]
-5.068258e-07 4.621972e-06 -3.6565311e-06 -5.4813527e-06 -8.203002e-06 -7.2936876e-07 1.1061491e-05 8.548957e-06
5.0020285e-06 -3.5769212e-06 -5.8173287e-06 -8.680063e-06 3.605642e-05 5.5003807e-06 9.080241e-06 -8.008847e-06
-8.200903e-06 -2.2906628e-05 7.056077e-06 -1.4361743e-05 8.577448e-06 1.9027544e-05 -3.2959174e-06 9.305183e-06
-4.557305e-06 -2.2761812e-06 -8.456458e-06 1.6821807e-05 -7.0167573e-07 -4.8832435e-06 -3.1502237e-05 6.7807323e-06
-9.549593e-06 -4.3503776e-05 1.6151891e-05 9.090652e-06 3.3754882e-06 -8.369345e-06 2.4916493e-05 -7.3503843e-06
1.3960173e-05 -9.06661e-06 -1.47112205e-05 -2.1768428e-05 1.560146e-06 2.8419392e-05 4.5343945e-06 8.719928e-06
-1.3658131e-05 -6.0573285e-07 -3.6901238e-05 -3.2107746e-06 -5.2936125e-06 4.886777e-06 -4.2461857e-06 -2.2392656e-07
-4.0706673e-06 -2.9639618e-06 -7.488833e-06 2.600275e-05 7.715294e-06 6.1738297e-06 -1.3665164e-05 -5.959916e-06
4.475272e-07 3.8530507e-05 -5.5539426e-06 -1.748035e-05 9.7355505e-06 2.401259e-05 -2.6427456e-06 8.803886e-06
-2.3701873e-06 2.600156e-05 3.1573192e-05 -4.5216366e-06 1.2509273e-05 1.0954205e-06 -1.7901186e-06 3.8070373e-06
-1.7901913e-05 6.8516115e-06 -7.1814884e-07 -8.603445e-06 8.998502e-06 -5.7535453e-07 -7.0023166e-06 -3.685195e-06
-1.7745328e-05 -4.597829e-06 -9.590123e-06 1.1855408e-06 9.362974e-06 -9.044121e-06 5.7124385e-06 1.8353183e-05
7.718614e-06 -5.0438766e-06 -1.7528513e-05 1.0345871e-05 4.848579e-05 -2.982497e-06 -1.8613362e-05 -2.3430257e-06
-7.684141e-06 4.147472e-06 2.3133564e-06 3.7919366e-05 1.6736428e-06 2.6083904e-05 -1.9801235e-05 -1.2032478e-05
2.6594067e-05 -6.7493525e-06 1.0612404e-05 6.3115704e-06 -9.4777415e-06 -3.3656575e-05 6.9359294e-06 -1.4290477e-05
-3.4853751e-06 1.261926e-06 -2.0645895e-05 1.0457306e-05 -1.4235144e-05 1.2473986e-05 2.2824709e-06 1.4938729e-06
00000000: ce0c 08b5 7016 9b36 ba62 75b6 76ec b7b6
00000010: a09f 09b7 d7c9 43b5 be94 3937 7e6d 0f37
00000020: 19d7 a736 0a0b 70b6 7932 c3b6 96a0 11b7
00000030: 493b 1738 e98f b836 5757 1837 bc5d 06b7
00000040: 9c96 09b7 9c27 c0b7 3dc3 ec36 37f3 70b7
00000050: dce7 0f37 579d 9f37 6e2f 5db6 751d 1c37
00000060: f4ea 98b6 7fc0 18b6 36e0 0db7 8e1c 8d37
00000070: ca5a 3cb5 beda a3b6 4521 04b8 0c86 e336
00000080: 3137 20b7 d377 36b8 ec7d 8737 0e84 1837
00000090: 7286 6236 106a 0cb7 c303 d137 52a3 f6b6
000000a0: 7d36 6a37 cb1c 18b7 36d0 76b7 589b b6b7
000000b0: 3566 d135 2e66 ee37 2726 9836 ce4b 1237
000000c0: 3a25 65b7 a599 22b5 67c6 1ab8 b078 57b6
000000d0: c99f b1b6 18f9 a336 757a 8eb6 7770 70b4
000000e0: c496 88b6 7ae8 46b6 9648 fbb6 7b20 da37
000000f0: ef70 0137 cb28 cf36 6f43 65b7 4afb c7b6
00000100: ac43 f034 d19b 2138 015c bab6 c4a2 92b7
00000110: df55 2337 a56e c937 065a 31b6 67b4 1337
00000120: 820f 1fb6 ed1d da37 756d 0438 90b8 97b6
00000130: ebde 5137 5d06 9335 0244 f0b5 677c 7f36
00000140: 112c 96b7 e5e6 e536 d0c6 40b5 8457 10b7
00000150: 46f8 1637 1072 1ab5 71f5 eab6 2b4f 77b6
00000160: cddb 94b7 0d47 9ab6 44e5 20b7 df1e 9f35
00000170: ab15 1d37 34bc 17b7 79ad bf36 29f5 9937
00000180: 327f 0137 923e a9b6 320a 93b7 2d93 2d37
00000190: 385d 4b38 e926 48b6 e423 9cb7 e03c 1db6
000001a0: 22eb 00b7 832a 8b36 293f 1b36 9c0b 1f38
000001b0: eea1 e035 c2ce da37 d41a a6b7 19df 49b7
000001c0: 5316 df37 7f78 e2b6 ee0b 3237 fac7 d336
000001d0: 9702 1fb7 792a 0db8 2ebb e836 22c1 6fb7
000001e0: 4ae6 69b6 725f a935 b930 adb7 ca71 2f37
000001f0: 7ad3 6eb7 5d47 5137 8d2c 1936 1581 c835

conv3.weight f4 [128, 128]
-0.008886279 0.012416424 0.039216805 0.060086984 0.04188134 -0.021803139 0.08790208 -0.009918525
0.09482618 -0.0003286568 0.06845532 -0.00041154717 0.0032035555 0.010830645 -0.118314 -0.0451568
-0.18057393 -0.08091498 0.059598316 -0.029607287 -0.048259497 -0.06454512 0.1360388 0.027826695
0.0123065 -0.04637452 0.017579414 -0.0028565722 -0.09525604 -0.040852286 -0.08922448 -0.040078484
0.10302152 0.13311054 0.098713554 -0.08092134 -0.040918645 0.014673355 0.0042480524 0.049511958
0.0602236 -0.1559992 0.13755219 -0.114691354 -0.06413442 0.018679084 -0.002269457 -0.09918953
0.13444136 0.0388244 0.09085242 0.123114854 -0.00096695684 -0.16027744 -0.06732725 -0.14516589
0.034222826 -0.26662153 -0.006043559 0.08494935 0.15661404 0.04933836 0.10168473 0.032339413
-0.0499598 0.03850887 0.10613617 0.019131234 -0.0025322614 0.08477187 0.08723478 0.021933598
0.11613315 0.02577575 -0.018405166 -0.05429326 -0.060053233 0.018910585 0.006200258 -0.039568305
-0.045856766 -0.003999945 -0.21435729 0.07180066 0.028541127 0.19092986 0.11357327 -0.03626055
0.09978347 0.13634124 0.06379391 -0.0770747 -0.06713952 0.005486724 -0.07959837 -0.10503706
0.07138514 0.004566126 0.049863145 -0.0632606 -0.0071853995 0.07828559 -0.0138088325 0.03609351
-0.0106682135 0.020049548 -0.010567 0.061756786 -0.09738734 0.036164526 -0.019712694 -0.053489868
-0.0643767 0.13385469 -0.19590531 0.070431344 -0.027062189 -0.10162384 0.022654323 -0.018907009
-0.07942008 -0.036283787 -0.04967479 0.1335167 0.039831705 0.020395854 0.06901139 -0.019303748
0.12041538 -0.043322854 -0.052723426 0.08766824 -0.035193782 -0.032981895 -0.041843507 0.07976059
0.02252557 0.0548934 0.096195325 0.12960137 0.01057287 0.03066533 -0.025571343 -0.04922902
-0.019955844 -0.06135525 0.0030607798 0.09243127 -0.09153256 0.033587452 0.076067895 -0.025111124
-0.05752548 0.04190095 0.012608971 0.13004234 -0.027096856 0.01703176 0.09405282 -0.030035578
-0.12531382 -0.044956863 -0.08135328 -0.07272499 -0.00912265 0.0644625 0.02050269 -0.07812957
0.008793406 0.020472722 -0.050427295 -0.019312816 -0.03672144 -0.010521516 -0.0009941249 -0.077912055
-0.052982785 0.051198673 -0.025136236 0.049618516 0.0012585466 -0.043207552 -0.053349033 0.05956815
0.04038137 -0.08441681 0.02419691 0.08815707 0.059750006 0.00686461 -0.023257786 0.058188792
0.07102978 -0.013256554 -0.011599598 -0.028188653 -0.00010722794 0.10655502 -0.14594616 0.07913926
-0.018569728 -0.054908715 0.009678749 -0.017054249 0.0014791297 -0.042000566 -0.045704074 0.03422663
-0.093617484 -0.086744815 -0.0029676517 0.07732329 -0.06895676 -0.007993823 0.045687404 0.058065638
-0.014539319 -0.03357895 -0.047221947 0.037038323 0.09538153 -0.02555458 -0.06396734 -0.057380408
-0.06449803 0.008515987 0.01922941 -0.034362007 -0.08355448 0.07694572 0.12437171 0.07345013
-0.034319256 0.03834295 0.014894891 0.032649126 -0.03260796 -0.03174192 -0.03306772 -0.08962495
-0.021837931 -0.04919943 -0.10693383 0.12196631 0.050148915 0.06956596 0.027939722 0.03148005
0.07013941 -0.12614277 -0.01366809 -0.014195715 -0.01938609 0.05218922 0.021889612 -0.011296203
00000000: c197 11bc 426e 4b3c cda1 203d c51d 763d
00000010: c58b 2b3d 7f9c b2bc 0106 b43d 4f81 22bc
00000020: 3a34 c23d 924f acb9 4e32 8c3d edc4 d7b9
00000030: bef2 513b 0573 313c 9c4e f2bd 56f6 38bd
00000040: 5fe8 38be c1b6 a5bd 5d1d 743d fb8a f2bc
00000050: c0ab 45bd 3b30 84bd c14d 0b3e cff4 e33c
00000060: 34a1 493c 35f3 3dbd b402 903c 5435 3bbb
00000070: 9915 c3bd ba54 27bd 53bb b6bd 5629 24bd
00000080: f2fc d23d 214e 083e 552a ca3d 16ba a5bd
00000090: 4f9a 27bd 8368 703c 3f33 8b3b 0dcd 4a3d
000000a0: 06ad 763d 41be 1fbe 7bda 0c3e 4de3 eabd
000000b0: e858 83bd e104 993c 2cbb 14bb e123 cbbd
000000c0: ffaa 093e 5606 1f3d d510 ba3d a423 fc3d
000000d0: 607b 7dba c51f 24be dfe2 89bd 5ea6 14be
000000e0: 3c2d 0c3d 9e82 88be 0c09 c6bb edf9 ad3d
000000f0: 6e5f 203e 0517 4a3d 1540 d03d 5576 043d
00000100: a6a2 4cbd 7abb 1d3d ec5d d93d 1bb9 9c3c
00000110: 4cf4 25bb e09c ad3d 26a8 b23d 17ae b33c
00000120: 38d7 ed3d aa27 d33c 6ec6 96bc 9c62 5ebd
00000130: 61fa 75bd 5fea 9a3c 892b cb3b 6012 22bd
00000140: 4ed4 3bbd f811 83bb 7a80 5bbe 390c 933d
00000150: 15cf e93c 1e83 433e 1a99 e83d f185 14bd
00000160: 475b cc3d 0a9d 0b3e 62a6 823d 57d9 9dbd
00000170: 7280 89bd fac9 b33b 7804 a3bd ac1d d7bd
00000180: 5f32 923d 719f 953b 4c3d 4c3d c68e 81bd
00000190: 8073 ebbb 3254 a03d 713e 62bc cad6 133d
000001a0: bbc9 2ebc f33e a43c 3621 2dbc aff4 7c3d
000001b0: 0473 c7bd 4121 143d 847c a1bc 3118 5bbd
000001c0: eed7 83bd 3411 093e 679b 48be 4f3e 903d
000001d0: 86b1 ddbc 2920 d0bd 8f95 b93c dfe2 9abc
000001e0: ffa6 a2bd 4f9e 14bd cb77 4bbd 9ab8 083e
000001f0: 9226 233d 3515 a73c d855 8d3d e522 9ebc
00000200: 579c f63d 4e73 31bd 85f4 57bd 688b b33d
00000210: 5b27 10bd 0618 07bd 1964 2bbd 8559 a33d
00000220: 8b87 b83c e7d7 603d 0e02 c53d 39b6 043e
00000230: d539 2d3c dc35 fb3c fe7a d1bc 5ea4 49bd
00000240: 707a a3bc a54f 7bbd 5d97 483b 9b4c bd3d
00000250: 6c75 bbbd ff92 093d 7cc9 9b3d d8b5 cdbc
00000260: d69f 6bbd 55a0 2b3d dc95 4e3c d229 053e
00000270: 3afa ddbc 3186 8b3c c49e c03d 2c0d f6bc
00000280: 4452 00be b024 38bd 8c9c a6bd d7f0 94bd
00000290: 2b77 15bc ea04 843d 42f5 a73c 6502 a0bd
000002a0: 3812 103c 69b6 a73c da8c 4ebd e935 9ebc
000002b0: 3869 16bd 7062 2cbc 4c4d 82ba 5b90 9fbd
000002c0: 7a04 59bd b3b5 513d 82ea cdbc c93c 4b3d
000002d0: d1f5 a43a 67fa 30bd 8484 5abd bcfd 733d
000002e0: ef66 253d b8e2 acbd 9938 c63c b28b b43d
000002f0: 6cbc 743d 86f0 e03b 1d87 bebc 5f57 6e3d
00000300: 1078 913d 0432 59bc 3e0c 3ebc e4eb e6bc
00000310: 90df e0b8 8539 da3d e972 15be c413 a23d
00000320: 8b1f 98bc f6e7 60bd 9e93 1e3c 5ab5 8bbc
00000330: 5bdf c13a c908 2cbd 3234 3bbd 3931 0c3d
00000340: 86ba bfbd 44a7 b1bd ef7c 42bb ac5b 9e3d
00000350: 3439 8dbd 86f8 02bc b722 3b3d 3cd6 6d3d
00000360: 5336 6ebc 158a 09bd cd6b 41bd 7fb5 173d
00000370: 6457 c33d d757 d1bc 4f01 83bd b807 6bbd
00000380: 8b17 84bd a386 0b3c ff86 9d3c 2dbf 0cbd
00000390: 9c1e abbd b895 9d3d 98b6 fe3d 066d 963d
000003a0: 5992 0cbd 7f0d 1d3d b309 743c 17bb 053d
000003b0: ed8f 05bd d103 02bd 0472 07bd 498d b7bd
000003c0: 76e5 b2bc 5785 49bd 2000 dbbd 79c9 f93d
000003d0: f368 4d3d 9978 8e3d d8e1 e43c 3af1 003d
000003e0: 40a5 8f3d 922b 01be 20f0 5fbc 2595 68bc
000003f0: 94cf 9ebc 5dc4 553d d851 b33c b613 39bc

conv3.bias f4 [128]
1.4447979e-05 4.189781e-06 3.9387194e-07 -7.639814e-06 3.8172707e-06 7.354865e-06 6.9538164e-06 1.8780057e-06
1.2239993e-05 7.708159e-07 -1.7765029e-05 1.1558458e-06 3.3665176e-06 3.5861297e-07 -3.9772593e-07 4.564299e-07
-3.632849e-05 2.3494233e-06 -9.458992e-06 1.895462e-05 -4.7652074e-06 5.407358e-06 8.390147e-06 -2.4420468e-05
1.4513418e-05 7.514041e-07 3.8437033e-06 -5.3145627e-06 -1.7949862e-06 1.1191618e-06 2.4346884e-05 2.3549323e-05
1.029057e-05 -7.547253e-06 3.232153e-06 7.996515e-06 3.4674645e-06 1.0298612e-06 -2.8081133e-06 3.129499e-06
-1.8706252e-05 -9.926952e-06 1.5983615e-06 1.0497905e-05 -5.987672e-06 2.8353793e-07 1.2997048e-10 -4.1301744e-05
1.585954e-05 2.3336888e-05 3.3429778e-06 5.666642e-06 1.0182682e-09 1.9353018e-05 2.1490381e-05 -1.551601e-05
-7.89453e-06 -4.957186e-06 1.9284616e-05 7.4247932e-06 1.3767792e-05 3.0622718e-06 -4.705546e-05 9.988651e-06
-5.578703e-06 5.4155244e-06 1.6482519e-06 5.281973e-06 2.671399e-07 -1.543396e-05 -8.309124e-05 -3.1143602e-06
1.7984887e-05 7.904979e-06 1.4954477e-06 -1.7771257e-06 4.4680737e-06 -2.7161386e-06 8.829684e-06 -7.785343e-06
-1.6470802e-05 -1.3865941e-06 1.0086728e-05 -1.4043035e-06 1.9300835e-05 1.761391e-05 -3.6023823e-06 8.689e-06
6.1986448e-06 -9.266016e-06 4.2060756e-06 -2.755103e-07 -2.3436664e-06 -7.991665e-06 1.21941985e-05 -6.036541e-06
1.4331056e-05 -3.0724533e-07 -3.6255165e-05 6.315892e-06 -3.635206e-07 1.2062652e-05 -3.748732e-05 -5.862442e-06
2.9602666e-06 2.188531e-06 -4.1873122e-07 4.3056094e-05 -1.26381465e-05 9.569061e-06 -1.4247133e-05 4.0818472e-06
-3.6352583e-06 -1.9081268e-05 -1.6451837e-05 1.3006009e-05 5.2509245e-06 5.064276e-05 -6.4989586e-06 -1.6827807e-06
1.8118292e-06 -4.3819047e-05 -2.4430083e-06 -2.2485865e-06 -2.5400957e-06 4.289108e-06 2.3331136e-06 1.8573397e-05
00000000: 9965 7237 f295 8c36 5975 d334 c02c 00b7
00000010: 1b16 8036 cfc9 f636 d454 e936 c90f fc35
00000020: 5f5a 4d37 11ea 4e35 1c06 95b7 8f22 9b35
00000030: 55ec 6136 6487 c034 0987 d5b4 3f0b f534
00000040: 6b5f 18b8 c9aa 1d36 10b2 1eb7 bd00 9f37
00000050: d2e4 9fb6 da70 b536 68c3 0c37 8eda ccb7
00000060: a87e 7337 19b4 4935 29f9 8036 bf53 b2b6
00000070: 42eb f0b5 1b36 9635 893c cc37 c98b c537
00000080: a9a5 2c37 693e fdb6 f7e7 5836 c528 0637
00000090: 96b2 6836 c339 8a35 0573 3cb6 6204 5236
000000a0: 5feb 9cb7 ef8b 26b7 4887 d635 2920 3037
000000b0: b6e9 c8b6 2839 9834 70e7 0e2f 693b 2db8
000000c0: 1a0a 8537 96c3 c337 ec57 6036 1624 be36
000000d0: 21f3 8b30 4a58 a237 3e46 b437 6128 82b7
000000e0: c072 04b7 e755 a6b6 66c5 a137 7d22 f936
000000f0: 37fc 6637 6e81 4d36 6a5d 45b8 ee94 2737
00000100: b230 bbb6 00b7 b536 8139 dd35 cd3b b136
00000110: 6e6b 8f34 2d78 81b7 4541 aeb8 4d00 51b6
00000120: 40de 9637 a09f 0437 31b7 c835 9385 eeb5
00000130: 76ec 9536 e846 36b6 3423 1437 cb9d 02b7
00000140: c72a 8ab7 031b bab5 2b3a 2937 807b bcb5
00000150: 3ae8 a137 95c1 9337 75c0 71b6 f9c6 1137
00000160: f4fd cf36 3c75 1bb7 ea21 8d36 d9e9 93b4
00000170: e247 1db6 f113 06b7 af95 4c37 7e8d cab6
00000180: 6b6f 7037 7af3 a4b4 b010 18b8 19ed d336
00000190: e429 c3b4 b260 4a37 b43b 1db8 feb5 c4b6
000001a0: fea8 4636 adde 1236 fbcd e0b4 2197 3438
000001b0: 6d08 54b7 ce8a 2037 f806 6fb7 cdf6 8836
000001c0: 43f5 73b6 b610 a0b7 0d02 8ab7 6234 5a37
000001d0: 1931 b036 4069 5438 a111 dab6 e8db e1b5
000001e0: fa2d f335 58ca 37b8 90f2 23b6 6ce6 16b6
000001f0: 8376 2ab6 28eb 8f36 9692 1c36 11ce 9b37

bn1.weight f4 [128]
0.7139837 0.6784503 0.789994 0.5994619 0.73540527 0.88995135 0.83825773 0.7910724
0.7597212 0.7185086 0.6171505 0.83182126 0.71343213 0.7978642 0.79185903 1.0193664
0.7979748 0.83959836 0.8317469 0.85439646 0.67185575 0.6724354 0.73194045 0.75465727
0.90848345 0.61486 0.7481565 0.9077213 0.78171974 0.81731147 0.7563661 0.7037798
0.77145404 0.6249985 0.8750145 0.9044282 0.74795616 0.51770115 0.7775396 0.7706604
0.75916135 0.8448909 0.9490073 0.76137346 0.8841509 0.76693463 0.7678327 0.65209764
0.8250675 0.62307584 0.86222863 0.8235568 0.8212689 0.8710726 0.56758374 0.7560501
0.57752776 0.814022 0.7458894 0.8631599 0.6786241 0.7822211 0.8422359 0.69449276
0.9559403 0.87951285 0.79279435 0.7344856 0.5928407 0.8772275 0.7280379 0.86967003
0.81687135 0.701077 0.5178138 0.6555178 0.8001428 0.62457466 1.0059882 0.69560266
0.6545936 0.89801586 0.7687828 0.7937395 0.64257574 0.57312435 0.64546794 0.6468051
0.8212652 0.99574786 0.8029843 0.59462684 0.6806657 0.6983443 0.6366502 0.86434543
0.8996719 0.6556594 0.81354964 0.73480314 0.7656729 0.65953416 0.7288376 0.9195856
0.7088205 0.6753123 0.6855062 0.8032425 0.6355119 0.7515604 0.88248104 0.77974784
0.75783813 0.806285 0.8208157 0.7179264 0.8683523 0.8538861 0.81374 0.7873826
0.8408073 0.77708894 0.7009081 0.8296287 0.7177449 0.7087756 0.925364 0.75188637
00000000: a3c7 363f ebae 2d3f 0c3d 4a3f 5676 193f
00000010: 8543 3c3f dad3 633f 0f98 563f b983 4a3f
00000020: 177d 423f 2ef0 373f 93fd 1d3f 3df2 543f
00000030: 7da3 363f d440 4c3f 46b7 4a3f 997a 823f
00000040: 1448 4c3f ebef 563f 5ded 543f bab9 5a3f
00000050: bdfe 2b3f ba24 2c3f 7360 3b3f 3831 413f
00000060: 5f92 683f 7767 1d3f 2f87 3f3f 6c60 683f
00000070: c91e 483f 533b 513f 35a1 413f ea2a 343f
00000080: 037e 453f e7ff 1f3f f300 603f 9b88 673f
00000090: 0e7a 3f3f 1088 043f d60c 473f 004a 453f
000000a0: 6658 423f c54a 583f 24f2 723f 5fe9 423f
000000b0: b757 623f d455 443f af90 443f dfef 263f
000000c0: a037 533f e681 1f3f 04bb 5c3f 9ed4 523f
000000d0: ae3e 523f 9dfe 5e3f 2b4d 113f 808c 413f
000000e0: dcd8 133f bf63 503f 9cf2 3e3f 0cf8 5c3f
000000f0: 4fba 2d3f a43f 483f c69c 573f 47ca 313f
00000100: 81b8 743f c127 613f 92f4 4a3f 4007 3c3f
00000110: 68c4 173f fb91 603f b160 3a3f b2a2 5e3f
00000120: 7b1e 513f c879 333f 728f 043f 04d0 273f
00000130: 29d6 4c3f 20e4 1f3f 39c4 803f 0413 323f
00000140: 7293 273f 5ee4 653f f3ce 443f 8332 4b3f
00000150: d87f 243f 47b8 123f 633d 253f 0595 253f
00000160: 703e 523f 55e9 7e3f 6190 4d3f 7739 183f
00000170: 1b40 2e3f b1c6 323f 82fb 223f be45 5d3f
00000180: e650 663f 4bd9 273f ca44 503f 0f1c 3c3f
00000190: 2403 443f 3bd7 283f 1a95 3a3f f669 6b3f
000001a0: 4375 353f 44e1 2c3f 567d 2f3f 4da1 4d3f
000001b0: e8b0 223f 4366 403f 47ea 613f 8e9d 473f
000001c0: ae01 423f b268 4e3f fa20 523f 06ca 373f
000001d0: 564c 5e3f 4898 5a3f 4451 503f e891 493f
000001e0: 263f 573f 4def 463f b76e 333f 8c62 543f
000001f0: 21be 373f 5172 353f a8e4 6c3f a07b 403f

bn1.bias f4 [128]
-0.16545853 -0.048145946 0.016480887 0.021470718 -0.13046663 -0.2819076 -0.056914646 -0.13147716
-0.2568766 -0.2540473 -0.047983356 0.025719933 -0.056059007 0.10408874 -0.007925115 0.064592935
0.16208972 0.026471877 0.044658944 -0.030605586 0.043799832 -0.12486862 -0.13829136 -0.14138377
0.074755065 -0.12042064 0.028170973 -0.10714889 0.2919325 -0.008317418 0.04455587 -0.11866216
-0.08069227 0.030458292 -0.19618231 0.19853918 -0.10244897 -0.07265839 -0.040895462 -0.19846925
-0.088086456 0.08245151 0.027550602 -0.23426431 0.046799175 0.103041455 0.007626762 -0.20269737
0.007027256 0.029909203 -0.12715353 -0.1906768 0.034497578 -0.0069533153 0.028662482 -0.12987639
-0.071401514 -0.043985203 0.0008094711 -0.051491648 -0.13085759 -0.025610793 -0.0073962095 0.17399888
-0.13338462 -0.14992386 -0.10815241 -0.038476545 -0.1050729 -0.0698088 0.005444463 0.047079366
0.28541985 -0.07385982 -0.11389633 -0.060751397 -0.1690941 -0.07830839 -0.10205313 -0.06935376
-0.21478054 -0.08030435 0.10020741 -0.009884953 0.08186511 -0.046393476 -0.09220673 -0.06872931
-0.026375018 -0.24015701 0.00689607 0.08073932 0.21491328 -0.17453529 -0.20174402 -0.13521972
-0.13974845 0.15757585 -0.13745053 -0.07680105 -0.20412828 -0.108625434 -0.11203777 -0.25683942
-0.08331428 0.13518345 0.17353751 0.02944729 -0.1290603 0.04643174 0.072229564 -0.108224936
-0.029254934 -0.1997639 -0.26772565 -0.034292653 0.23863529 -0.04368893 0.14399312 -0.08204441
-0.07936751 -0.018580496 0.0025721714 -0.3059205 -0.06953159 -0.08793511 -0.00038367178 0.02183915
00000000: f66d 29be af34 45bd ed02 873c 5ce3 af3c
00000010: 0b99 05be 3156 90be 551f 69bd f3a1 06be
00000020: 5485 83be 7d12 82be 328a 44bd 9cb2 d23c
00000030: 219e 65bd 7a2c d53d 57d8 01bc 4d49 843d
00000040: d9fa 253e 8ddb d83c 4cec 363d 91b8 fabc
00000050: 7467 333d 1ebb ffbd 409c 0dbe e8c6 10be
00000060: 2f19 993d 199f f6bd d0c6 e63c e170 dbbd
00000070: 2d78 953e c845 08bc 3780 363d 2605 f3bd
00000080: fd41 a5bd ab83 f93c 04e4 48be db4d 4b3e
00000090: c4d0 d1bd eccd 94bd 0082 27bd 863b 4bbe
000000a0: ac66 b4bd 56dc a83d cdb1 e13c fce2 6fbe
000000b0: 7eb0 3f3d 6607 d33d ebe9 f93b e68f 4fbe
000000c0: e544 e63b 2504 f53c 8934 02be c740 43be
000000d0: 554d 0d3d a3d8 e3bb 95cd ea3c 51fe 04be
000000e0: f53a 92bd d429 34bd b032 543a e8e8 52bd
000000f0: 88ff 05be bacd d1bc e75b f2bb c32c 323e
00000100: fa95 08be a485 19be 037f ddbd 9599 1dbd
00000110: 7630 d7bd ebf7 8ebd 7767 b23b 4bd6 403d
00000120: 8d22 923e d143 97bd 7b42 e9bd 75d6 78bd
00000130: 0127 2dbe 2660 a0bd 3b01 d1bd 5809 8ebd
00000140: 6eef 5bbe 9b76 a4bd 8b39 cd3d 7ff4 21bc
00000150: e5a8 a73d 1607 3ebd e2d6 bcbd f4c1 8cbd
00000160: 6c10 d8bc b8eb 75be 6ef8 e13b a85a a53d
00000170: 3a12 5c3e 61b9 32be fc95 4ebe 0a77 0abe
00000180: 381a 0fbe 905b 213e d5bf 0cbe de49 9dbd
00000190: 0107 51be 0377 debd 0f74 e5bd 7580 83be
000001a0: ada0 aabd 886d 0a3e d1b3 313e 713b f13c
000001b0: 6228 04be 352f 3e3d 18ed 933d 09a5 ddbd
000001c0: 0ba8 efbc e88e 4cbe 5613 89be 7476 0cbd
000001d0: cf5c 743e 2af3 32bd ef72 133e e606 a8bd
000001e0: 6f8b a2bd 2036 98bc e091 283b 9da1 9cbe
000001f0: 9466 8ebd 5317 b4bd 8e27 c9b9 04e8 b23c

bn1.running_mean f4 [128]
0.0006083944 -0.0200816 -0.0051944456 -0.007597144 -0.1838804 -0.26289994 0.025127646 -0.029533563
0.05848402 0.07863991 -0.039159123 0.027191661 -0.016315585 0.032267053 -0.07582236 0.08218058
0.04054068 0.01430063 -0.24088144 0.014108908 0.059049163 -0.038088765 0.12758006 -0.042336762
0.11586509 0.070045225 0.076476574 0.10550551 -0.049318563 0.1164104 0.15502198 0.19040047
-0.24020733 -0.19603701 0.0046343645 0.1569156 0.17951673 -0.044135246 -0.013958773 -0.14954767
-0.15619929 0.036280725 -0.1903625 0.08645081 0.1586658 -0.10998355 0.17257144 0.0045823986
-0.07940096 -0.11693247 -0.19300571 0.103574164 0.22560027 0.13578285 0.15725486 -0.039747927
0.11974612 -0.061974887 0.09723998 0.00927853 -0.06558062 0.2285923 -0.026374474 -0.05797749
-0.088135876 0.04228463 -0.019514555 0.021136401 -0.021142028 -0.2730144 -0.18857956 0.059752427
0.13084747 -0.013148544 -0.095944405 0.081803724 0.019156972 0.05700765 -0.20368618 0.060860112
0.022013549 0.06766919 0.18472244 0.17569518 -0.1625594 0.012729227 -0.051512208 -0.016426977
-0.27898452 -0.23686324 -0.030641003 -0.045525596 -0.061315484 -0.19029777 0.030280126 -0.001568761
-0.20879216 0.06949177 -0.022779206 0.050906602 -0.019558333 0.0999969 0.038731646 -0.23623042
-0.027716998 0.061672457 0.06284455 -0.08116701 0.018408094 -0.053073563 0.16301042 -0.0036823289
-0.0056275227 -0.05452341 0.2677298 -0.03299001 0.13209708 -0.2739848 -0.12119227 -0.14438075
-0.0129436385 0.021578327 0.09304197 -0.067733675 -0.017470017 -0.06978081 0.08419512 -0.073497765
00000000: a87c 1f3a 2b82 a4bc 2b36 aabb 77f1 f8bb
00000010: 254b 3cbe d29a 86be 7ed8 cd3c 5ff0 f1bc
00000020: f18c 6f3d f60d a13d 5165 20bd 0cc1 de3c
00000030: 43a8 85bc 752a 043d c148 9bbd 4b4e a83d
00000040: fc0d 263d 314d 6a3c a0a9 76be 0d29 673c
00000050: 89dd 713d f702 1cbd 59a4 023e 5069 2dbd
00000060: ad4a ed3d df73 8f3d c09f 9c3d 4613 d83d
00000070: 4302 4abd 9368 ee3d 15be 1e3e 57f8 423e
00000080: e9f8 75be edbd 48be dedb 973b 7cae 203e
00000090: 3cd3 373e 29c7 34bd 56b3 64bc 0623 19be
000000a0: b5f2 1fbe 199b 143d 63ee 42be 1f0d b13d
000000b0: 4a79 223e 0e3f e1bd 91b6 303e f227 963b
000000c0: f89c a2bd 4a7a efbd 4aa3 45be b11e d43d
000000d0: c203 673e a90a 0b3e 6b07 213e b9ce 22bd
000000e0: 743d f53d 61d9 7dbd c125 c73d fa04 183c
000000f0: 224f 86bd 1a14 6a3e 480f d8bc ce79 6dbd
00000100: 9580 b4bd a632 2d3d fddc 9fbc 3f26 ad3c
00000110: 0c32 adbc 8bc8 8bbe 001b 41be f6be 743d
00000120: e1fc 053e fe6c 57bc 807e c4bd b688 a73d
00000130: 15ef 9c3c db80 693d 1c93 50be 7448 793d
00000140: c255 b43c 2596 8a3d e127 3d3e 70e9 333e
00000150: f975 26be 3f8e 503c 77fe 52bd de91 86bc
00000160: 0fd7 8ebe 478c 72be d702 fbbc 0c79 3abd
00000170: f225 7bbd 6bdd 42be 070e f83c e29e cdba
00000180: 9dcd 55be b351 8e3d 759b babc 7183 503d
00000190: cc38 a0bc 2dcb cc3d 13a5 1e3d 63e6 71be
000001a0: c20e e3bc 429c 7c3d a5b4 803d e43a a6bd
000001b0: 92cc 963c aa63 59bd 34ec 263e 3a53 71bb
000001c0: 1567 b8bb f053 5fbd e113 893e 8820 07bd
000001d0: 7544 073e bc47 8cbe a733 f8bd 8cd8 13be
000001e0: 8e11 54bc 08c5 b03c ca8c be3d f4b7 8abd
000001f0: 481d 8fbc 3ee9 8ebd 7e6e ac3d ff85 96bd

bn1.running_var f4 [128]
0.07033343 0.059469122 0.06294635 0.0447783 0.08973763 0.11406323 0.051750876 0.06705211
0.04190848 0.05920313 0.049229834 0.059457008 0.066474766 0.15082881 0.051067848 0.05564276
0.09442068 0.06724817 0.060931846 0.066982776 0.042167258 0.05748541 0.050547056 0.065965295
0.051058188 0.072486445 0.09526001 0.07499858 0.04262853 0.056308344 0.07785113 0.06100253
0.05828171 0.039241724 0.06292802 0.08880219 0.06222858 0.04456073 0.079013884 0.0749675
0.051539574 0.0627879 0.06994342 0.051256124 0.11079714 0.06341199 0.06856509 0.039041627
0.053940203 0.04974424 0.078742735 0.08614695 0.061824363 0.053538144 0.061180685 0.051928885
0.06725953 0.04480613 0.06557846 0.08707158 0.05466112 0.0753371 0.07143668 0.07934279
0.084360115 0.043011267 0.04839328 0.0892932 0.04972011 0.08383923 0.086673245 0.064751044
0.06670174 0.08574346 0.048131075 0.056724694 0.06864414 0.043822013 0.07042889 0.061372012
0.053139385 0.049616165 0.052753147 0.07118754 0.06982063 0.039565418 0.04929486 0.059660915
0.078110665 0.120172024 0.05111507 0.04781863 0.059761148 0.08539619 0.043423064 0.07026179
0.050206657 0.050816428 0.08544051 0.059284966 0.11434729 0.04481067 0.056211274 0.124121994
0.046206877 0.061326798 0.060155958 0.05371623 0.072929084 0.055296477 0.07292403 0.069571376
0.064860694 0.051402967 0.06728884 0.06349484 0.05329004 0.062450904 0.07886054 0.08564469
0.053773757 0.082579255 0.045538682 0.028808102 0.04319488 0.07148312 0.052388795 0.062563956
00000000: f90a 903d e595 733d 04ea 803d 7369 373d
00000010: 5dc8 b73d fc99 e93d baf8 533d 9e52 893d
00000020: 3aa8 2b3d fb7e 723d 39a5 493d 3189 733d
00000030: ec23 883d de72 1a3e 852c 513d aae9 633d
00000040: a15f c13d 69b9 893d ac93 793d 442e 893d
00000050: 93b7 2c3d d275 6b3d 6e0a 4f3d d018 873d
00000060: 6422 513d c673 943d ae17 c33d db98 993d
00000070: 419b 2e3d 94a3 663d 6a70 9f3d cadd 793d
00000080: cdb8 6e3d eebb 203d 68e0 803d ecdd b53d
00000090: 65e3 7e3d 5085 363d 08d2 a13d 9088 993d
000000a0: 291b 533d f196 803d 7f3e 8f3d f1f1 513d
000000b0: 9ce9 e23d 25de 813d db6b 8c3d 1dea 1f3d
000000c0: 67f0 5c3d 9ec0 4b3d df43 a13d d06d b03d
000000d0: 8b3b 7d3d d04a 5b3d 9998 7a3d 62b3 543d
000000e0: 5dbf 893d a286 373d 004e 863d 9652 b23d
000000f0: 57e4 5f3d 564a 9a3d 654d 923d 797e a23d
00000100: ffc4 ac3d 952c 303d 0838 463d 5adf b63d
00000110: 50a7 4b3d e7b3 ab3d be81 b13d 329c 843d
00000120: ec9a 883d 449a af3d 1725 453d 2758 683d
00000130: 4d95 8c3d b67e 333d 063d 903d 3861 7b3d
00000140: afa8 593d 523a 4b3d af13 583d c6ca 913d
00000150: 1efe 8e3d 590f 223d 68e9 493d 015f 743d
00000160: 7cf8 9f3d c01c f63d 095e 513d 78dd 433d
00000170: 1bc8 743d 33e4 ae3d 62dc 313d 6ae5 8f3d
00000180: 7fa5 4d3d e324 503d 6ffb ae3d cbd4 723d
00000190: e92e ea3d 658b 373d cb3d 663d ac33 fe3d
000001a0: 6c43 3d3d cf31 7b3d 1866 763d 8d05 5c3d
000001b0: d85b 953d 8f7e 623d 3259 953d 707b 8e3d
000001c0: afd5 843d eb8b 523d bbce 893d 9509 823d
000001d0: a846 5a3d 85cc 7f3d a381 a13d 7c66 af3d
000001e0: df41 5c3d 501f a93d c586 3a3d f8fe eb3c
000001f0: 1ded 303d be65 923d a295 563d 8821 803d
